Detecttion_ML_Game_Score/TF NN Classification Test/NN_game_score.tflite (tflite, 3896 bytes, 7 tensors)

dense_1/MatMul_bias f4 [9]
00000000: b0ac 73bc 7158 0a3e d041 70bc 09ad 183d
00000010: 1f13 8f3d 386b 383d beda dc3d ac05 9ebd
00000020: 976b 99bc
-0.014872715 0.135103 -0.014664128 0.037274394 0.06986069 0.045024127 0.10783909 -0.077159256
-0.01872806

dense_1/kernel/transpose f4 [9, 9]
00000000: 9f43 debe 3d6c b23e b1bc cabe 01b8 f83e
00000010: 33a0 3c3e 9470 4a3c 1317 4bbe b24c f3be
00000020: 9f85 d4bc 9c41 fc3e 69e5 c63e 75da 963e
00000030: 1688 c1be 7c87 f33e ae0b 153f 1b6d 2f3f
00000040: faf8 0fbf 3c7b bcbe 4dd0 08bf 377a 20be
00000050: fdd7 743d 9c52 1fbd fd1f 773e 62ae 97be
00000060: 80e1 12bf 62dc 66be 8dc4 6fbe b55b cb3e
00000070: 1578 163f 6899 0abf 9c33 d4be a2ae 01bd
00000080: 153a f8bd 2090 d3be b67d 05bf bd37 9abc
00000090: 5faa d63b 8e0a 91be 329c d43e 87a8 cd3e
000000a0: a778 69be ec25 ecbe 326e 073e ef81 0d3e
000000b0: e377 1c3e a8cf acbe ce1c 77bd 64ff 093f
000000c0: 3378 5c3e fb62 eb3e 21b5 a9be 24fb 8f3d
000000d0: b410 0e3f 6641 8dbe 8fd7 853d 525c e0be
000000e0: e5b8 873e 66a9 cb3e 6422 0ebe 5cda 17be
000000f0: a8ef a0be 59ae 083f efb4 dd3e 91cb 05bf
00000100: f4c4 90be 9164 53bd 6b6f c73e c376 923c
00000110: 79ac 0a3f 9003 26be 85bc 9ebd e60b 0c3d
00000120: 6a8e 6dbe d806 34be ad13 bebe 32be 07bf
00000130: 771e d53e c95e f2be d7f1 013f e1c9 9d3d
00000140: d9c9 fd3e
-0.43410966 0.34848204 -0.39597085 0.48577884 0.18420486 0.012355942 -0.19833021 -0.4751945
-0.025942622 0.49268806 0.388469 0.29463544 -0.37799138 0.47564304 0.58220947 0.68525857
-0.56239283 -0.3681277 -0.5344284 -0.15671621 0.059776295 -0.03889714 0.24133296 -0.2962523
-0.57375336 -0.22545007 -0.23414822 0.39718404 0.5877698 -0.5414033 -0.41445625 -0.031660683
-0.12120453 -0.41320896 -0.52144945 -0.018825406 0.0065510715 -0.28328365 0.41525418 0.4016764
-0.22799931 -0.46122682 0.1322563 0.13819097 0.15280108 -0.3375218 -0.060330205 0.5390532
0.21530227 0.45973954 -0.33146003 0.07030323 0.55494237 -0.27588958 0.06535255 -0.43820435
0.2650825 0.39777678 -0.13880306 -0.14829391 -0.31432843 0.53391033 0.43302104 -0.5226374
-0.28275263 -0.05160958 0.38952193 0.017878896 0.5416942 -0.16212296 -0.07750801 0.034191035
-0.23198858 -0.17580736 -0.37124386 -0.5302459 0.41624805 -0.4733794 0.50759643 0.07704521
0.4956806

dense_2/MatMul_bias f4 [16]
00000000: 0000 0000 895d 753d 246b 6f3d 5862 233b
00000010: e348 bcbb 0000 0000 c542 343e ef66 703d
00000020: 2041 d9bc 0fa6 92bd 0aea 8e3b a657 98bd
00000030: c6a2 25bd 79ba 903d 0000 0000 c006 2a3c
0.0 0.059903655 0.058451787 0.0024930444 -0.0057459935 0.0 0.17603596 0.058691915
-0.026520312 -0.071605794 0.0043613957 -0.074385926 -0.040438436 0.07066817 0.0 0.010377586

dense_2/kernel/transpose f4 [16, 9]
00000000: e691 afbe a8fb 73bd 88a4 463d e4ef f83d
00000010: 0d03 9a3e 64f8 e53d 30b8 c2be 9108 89be
00000020: 566f 32be 795b 633d e247 5ebe 9120 623d
00000030: 9b61 84bd 170f 5bbe 915a 463d e117 913e
00000040: 0f6e 8abe 3643 2abe 0835 a1be 167b 49be
00000050: e6e6 abbe 3e85 a6be 5261 8ebe 9dd3 ab3e
00000060: b387 6b3e 3f12 8fbe 72b1 d3be 53c2 9a3e
00000070: 819c 3cbd f051 93be d754 cf3e 2f65 233c
00000080: 53cd e2be 2410 b5be 8da6 cfbe a804 e9bd
00000090: 4ec3 a53d 4dcc a03e 1b11 633e 5bad 57be
000000a0: f9ea c8bd 3911 88be 0470 ddbe b4c9 2f3e
000000b0: 49c5 6c3d e47f de3d 719c eebe 96f3 6d3e
000000c0: d4b3 cc3d 2f7e 81be 44f7 ce3d c0cc 2abd
000000d0: 68e2 3c3d 877b d33e 61fb ac3e afeb 473e
000000e0: 4c2c 35be e1e0 843e 652f b63d debb c83d
000000f0: f446 023f a6d2 87be 0319 493e bbcd 693d
00000100: b62b 063f 0f6b 6f3e 7c98 6fbe 5e3f 2d3c
00000110: 9855 97be 8082 d43e 989c c5bb 8b37 a3be
00000120: a06e 00bf 9c4d 06be ae86 b73e 8001 a2be
00000130: bd16 d83e e74c b73e 6822 03be d072 d83e
00000140: 7513 95be e324 c03d 8125 d4be b3b6 dcbd
00000150: 1054 3b3e 6885 87be 15a4 cc3d c99f b4bd
00000160: 6f8b 75bd cd26 00bf e1c0 05be 1941 db3d
00000170: 3098 ae3c 5eaa aebb 4198 adbe b6fb b33e
00000180: 9efc 883e a4da 163d 3813 f73e 5383 bb3e
00000190: 6f45 98be d462 e6be d288 173e 265d bdbe
000001a0: 22a7 bfbe 6856 e93e 208f a33e 1175 9abd
000001b0: 7f79 21bd a475 e7be a177 5c3e 1815 ecbe
000001c0: 091d 84be d54f c23e a471 a9be f137 343e
000001d0: 3e85 b43e 9665 9f3c d1c4 703e f349 9bbe
000001e0: 3e42 da3e de46 0d3e 8ab8 d63d 2cdd 893d
000001f0: f05f 323e 123d a8be 876d eb3e 58bc cebd
00000200: a4c6 a03d d5d4 863e 8a90 29be 63aa ed3e
00000210: 536e a9be 1041 eb3c 079e e63e 08de 46be
00000220: 512b 9a3e a854 f53d 93b2 ebbe d81f bcbe
00000230: 2c41 d0bd 3e81 acbd ee60 db3e f6ea 2f3e
-0.34291 -0.05956617 0.048496753 0.121551305 0.30080453 0.112290174 -0.3803115 -0.26764348
-0.17425284 0.055507157 -0.21707109 0.05520684 -0.06463929 -0.21392475 0.048426215 0.2833853
-0.27037093 -0.16627201 -0.31485772 -0.1967586 -0.335746 -0.3252353 -0.27808625 0.33559886
0.23000984 -0.27943608 -0.41346318 0.30226383 -0.04604769 -0.2877345 0.40494415 0.0099728545
-0.44297275 -0.35363877 -0.40556756 -0.11377841 0.08093892 0.3140587 0.22174494 -0.21062224
-0.098104425 -0.2657564 -0.43249524 0.17166787 0.057805333 0.10864237 -0.4660373 0.23237452
0.09995237 -0.25291583 0.10105756 -0.04169917 0.046114355 0.4130518 0.33785537 0.195235
-0.17692679 0.2595282 0.088957585 0.09801458 0.50889516 -0.265279 0.19638447 0.057080965
0.5241045 0.23380683 -0.23398012 0.01057419 -0.2955749 0.41505814 -0.0060306303 -0.31878313
-0.501688 -0.13115543 0.3584494 -0.3164177 0.42204848 0.3580086 -0.12806094 0.42275095
-0.29116407 0.093820356 -0.41434863 -0.107770346 0.18293786 -0.26468968 0.09992234 -0.08819539
-0.059947427 -0.50059205 -0.13061859 0.10705776 0.021312803 -0.005330368 -0.33905223 0.35152978
0.26755232 0.036829606 0.4825685 0.3662363 -0.29740474 -0.44997275 0.14798287 -0.3698513
-0.374322 0.45573735 0.31945133 -0.0754186 -0.03942251 -0.4520694 0.2153001 -0.46109843
-0.25803402 0.37951532 -0.33094513 0.17599465 0.35257906 0.01945762 0.2351258 -0.30329856
0.42628664 0.13796565 0.10484417 0.06731638 0.1741941 -0.32859093 0.45982 -0.100945175
0.07850388 0.26334253 -0.16559044 0.46419057 -0.33091983 0.028717548 0.4504244 -0.19420636
0.30111173 0.119790375 -0.4603468 -0.36743045 -0.101686805 -0.084230885 0.4284739 0.17179474

dense_3/MatMul_bias f4 [16]
00000000: 66b6 a1bd 21dc a63d 82a7 f03b 7d04 dfbc
00000010: aa14 183d 1bcc 95bc ab5a f0bd 767d 48bd
00000020: 9dc0 edbd 7215 fa3d 991a f43d ae39 e5bd
00000030: cce2 013e e3e9 edbd fa79 ecbd ca79 463e
-0.07896118 0.08147455 0.0073441872 -0.02722382 0.03712908 -0.018285802 -0.117360435 -0.048947774
-0.11609004 0.122111216 0.119191356 -0.11192642 0.12684172 -0.11616876 -0.11546703 0.19382396

dense_3/kernel/transpose f4 [16, 16]
00000000: a774 70be dd39 e43e 4a95 cbbe 7917 4fbe
00000010: 4d9a 31be ebe6 ad3e 2b86 86be a730 ed3d
00000020: ed9a b43e b8a5 093f f9cd 273d fc97 d03e
00000030: 6b66 223e f06e cdbe 09f0 66be 90ed b83e
00000040: a90e a7be 057d b23e 7b0e c03e 057f 59be
00000050: 55f3 423e 54d4 27be dfbe f83e 77ca d13e
00000060: f74f 68be 46ad c13d 472b 80bd f00e 96be
00000070: 2dd2 c1be 690b 443e b0c6 813d 9bf9 d13d
00000080: 2f1b 9e3e 08cc b7bd f6ae babe 6286 813e
00000090: 72e7 b23d 2b3f 71be f71c 4bbd 73ac 5abe
000000a0: 1827 283d 4e09 7c3e 9097 56bd 0a4f 363d
000000b0: 705a 303d 1c59 e6bd 381e a0bd 3a35 933e
000000c0: 788e 18be e003 a23d b026 a5be 6a50 0e3e
000000d0: 39c5 093e 8c40 d7bd f17d bebe a972 3abe
000000e0: eef1 d13e 5b01 be3e 065d 6fbe a8d5 80be
000000f0: 637a 973e e1c2 823e 0db9 803e c8f9 3d3e
00000100: 4c7a a9bd 49ba 893e 21e3 2d3e 972b cb3e
00000110: 4075 613d b881 eebd 50a2 03be 4536 83be
00000120: 616f 463e c06e 0bbd 2ee5 703e aed3 96bc
00000130: 3ed0 8dbb 6fc2 cdbe afbc a03e 7c85 93be
00000140: 599c 973e e3f3 c93d 1764 8e3e b84c abbd
00000150: 68ba 4fbd e803 2e3d 5b78 3b3c 89f8 8c3d
00000160: fe95 473e ebe2 8abe f300 52be 487e b0be
00000170: 7dcb b63d dbe9 a9be 5c00 cc3d 9ebf 83be
00000180: 49db 80be 963d ef3e 42ea b7be 72ca 06be
00000190: dc85 9a3e a9e2 b73e 09d0 acbe 0304 dfbe
000001a0: 7269 dd3e 2053 663e 6470 e33d c840 bc3e
000001b0: 5930 0b3e 03a0 c53e 8ea8 463e 3b75 08be
000001c0: 72b1 3ebe e9ef 163e 3a23 95be 0be3 8a3d
000001d0: 3a65 a43d 63aa 9b3e 489d 60be c387 b43e
000001e0: b198 d63e 94a9 a43e 4f2e e7bd 1983 363e
000001f0: fb0c 213e 0426 a5be c317 ca3e 499a f7bc
00000200: acb7 bebe 3590 a83e 7306 c1be a696 d83d
00000210: 8b84 c9be 603b abbe 7383 05bd 28ba 91bd
00000220: 61fb ed3c fe81 dd3e 819f 95bd 7ccb c33e
00000230: 8f69 ff3d f7da d13e a887 96be 979c a6be
00000240: 5e5e 06be c721 42be f9c7 b23e c59e 91bd
00000250: 4c8c c53d a01b 2fbc a729 f43c 165a a23d
00000260: e570 a23e e959 94be 9e8f a4bd a504 a73e
00000270: b29f c3be 2db3 48be 53c1 c93e 99bc e13d
00000280: 0da9 b8be d475 68be ab05 923e 9697 62be
00000290: 0de0 5fbe 78f6 c0be b04f 6d3e 502f b13e
000002a0: d8ed e0bd 1c9e 923d e5a5 b63e 8f98 ffbd
000002b0: 598d 3f3e f33e f3bd 2cc0 4ebe 2663 b13e
000002c0: 7ce9 ccbe 08a5 aabe 7fc0 463e 4925 8abd
000002d0: a57a 023e 8e84 2abe 65f5 b2be dc23 3e3e
000002e0: 7fa3 46be 675b 983e ee25 48be fb52 203e
000002f0: 26f3 80be e0ce b5be c018 8fbe a8f8 433e
00000300: 00d9 893a ddea b83e 5f49 87be e98b c0be
00000310: 2714 6b3e 20b9 d03c 76a9 283d 614b 483d
00000320: e7cc 5bbe 9e2d 383e b852 b43e f5d3 dc3e
00000330: c04b 3fbe 4d7e 38bd 69e4 78be 51f0 203d
00000340: 0d06 b93e dcd1 aabe b19a 893e 3425 edbe
00000350: a499 29bd 51e4 ab3e 159b 0d3e b8f5 6dbe
00000360: 7f26 3bbe 3f06 bc3d 434e b23e e5e1 503e
00000370: 4707 6f3d 3e24 b7be bec7 79be 86ec a8bd
00000380: 4e9f 89be 534c eb3e cbd2 0c3d 2e96 403e
00000390: e854 7d3d 99d0 aa3e 80cd 25be 3b50 863d
000003a0: 69eb efbd 887d 913e b2fc 393e aba2 83bd
000003b0: 8e11 c93e 2b0b 663d 5059 93bd 153e a83d
000003c0: a081 aabc 8778 9a3d f02f 663d 08e7 8f3d
000003d0: 7b30 4d3e 7e67 16be 56be ec3e 55de 9c3e
000003e0: 1025 87be 7ce5 1abe b6e3 b9bc 8164 60be
000003f0: 8fcc 24be 1837 893e 30ed cf3c 7e42 bebe
-0.23482 0.44575396 -0.39762336 -0.20223798 -0.17344017 0.3396524 -0.26274237 0.11581545
0.3527445 0.5376849 0.040967915 0.40740955 0.15859382 -0.401237 -0.22552504 0.36118746
-0.32628372 0.34861007 0.37511048 -0.2123986 0.19038136 -0.1638959 0.48583123 0.4097478
-0.22686754 0.094568774 -0.062582545 -0.2930827 -0.37855664 0.19144978 0.06336725 0.102526866
0.30880114 -0.08974463 -0.3646161 0.25297838 0.08735551 -0.23559253 -0.04958817 -0.21354847
0.041052908 0.24612924 -0.052390635 0.04450897 0.043054998 -0.11247465 -0.07818264 0.28751546
-0.14898098 0.07910895 -0.3225608 0.13897863 0.1345414 -0.10510358 -0.3720546 -0.18207802
0.4100489 0.3711041 -0.2337533 -0.25163007 0.2958556 0.25539306 0.25141183 0.18552315
-0.082752794 0.26899937 0.16981174 0.39681694 0.05504346 -0.11645836 -0.12854886 -0.25627342
0.19378425 -0.034041166 0.23524925 -0.018411484 -0.004327803 -0.40187404 0.31393954 -0.28812778
0.2961147 0.09860971 0.27810737 -0.08364242 -0.05071488 0.042484194 0.011442269 0.06883342
0.19490811 -0.2712625 -0.20508175 -0.34471345 0.08925531 -0.3318623 0.09961006 -0.2573213
-0.251673 0.46726674 -0.35920912 -0.13163164 0.30180252 0.35915115 -0.33752468 -0.43557748
0.4324451 0.22492647 0.11105421 0.36768174 0.13592662 0.38598642 0.19400236 -0.1332597
-0.18622378 0.14739956 -0.29128438 0.06781586 0.0802712 0.30403432 -0.21934998 0.35259828
0.4191337 0.32160628 -0.112881295 0.17823447 0.15727608 -0.32255566 0.39471254 -0.030224936
-0.37249506 0.3292252 -0.37700233 0.10575609 -0.39358935 -0.33443737 -0.032596063 -0.071155846
0.02905053 0.4326324 -0.073058136 0.38241184 0.124713056 0.4098737 -0.29400373 -0.32541344
-0.13121936 -0.18958198 0.34918192 -0.07110361 0.096459 -0.010687739 0.029805018 0.07927339
0.31726757 -0.28974846 -0.08035205 0.3262073 -0.38207775 -0.195996 0.39405307 0.110223
-0.36066476 -0.22701198 0.2851995 -0.22128138 -0.21862812 -0.3768804 0.2317493 0.3460641
-0.10982865 0.07159063 0.35673442 -0.1248027 0.18706264 -0.11877241 -0.20190495 0.34645957
-0.40021884 -0.33329034 0.19409369 -0.06745393 0.12742098 -0.16652128 -0.34952846 0.18568367
-0.19398306 0.29757234 -0.19545719 0.15656655 -0.25185508 -0.35509396 -0.2794857 0.19137824
0.0010516942 0.36116686 -0.26423165 -0.37606743 0.22956906 0.0254789 0.041177236 0.048900012
-0.21464883 0.17986152 0.3521936 0.4313046 -0.1868124 -0.045042325 -0.24305882 0.039291684
0.3613743 -0.33363235 0.26875833 -0.46317446 -0.04140629 0.3357263 0.1382869 -0.23238266
-0.18276404 0.09180879 0.34825334 0.20398672 0.05835655 -0.35769838 -0.24392602 -0.08248238
-0.26879352 0.45956668 0.034380715 0.18807289 0.06184855 0.33362272 -0.16191673 0.065582715
-0.11714823 0.28416085 0.18162802 -0.06427511 0.39271206 0.056162994 -0.071947694 0.08214966
-0.020813763 0.0754252 0.05619806 0.070264876 0.20038025 -0.14687917 0.46238965 0.30638376
-0.26395464 -0.15126604 -0.022691589 -0.21913339 -0.16093658 0.26799846 0.025381655 -0.37160105

dense_4/kernel/transpose f4 [1, 16]
00000000: 315a 1c3e 6435 0bbd 1449 0fbf 02a0 09be
00000010: 4cda 91be 8944 8e3e b5c4 a53d 6b20 ee3e
00000020: 40ab 313e d917 34be cde3 0ebe cc81 6e3e
00000030: e604 72be bc78 923e 730d 243e fe64 95be
0.1526878 -0.033986464 -0.55970883 -0.13439944 -0.2848686 0.27786663 0.080941595 0.46509108
0.17350483 -0.17587222 -0.13954087 0.23291701 -0.23634681 0.28607738 0.16020755 -0.29178613
